2023-11-15_08:47:57#(yolov8_3.8) david@david-ubuntu20:ultralytics$ python3 train.py 
2023-11-15_08:47:59#
2023-11-15_08:47:59#                   from  n    params  module                                       arguments                     
2023-11-15_08:47:59#  0                  -1  1       464  ultralytics.nn.modules.conv.Conv             [3, 16, 3, 2]                 
2023-11-15_08:47:59#  1                  -1  1      4672  ultralytics.nn.modules.conv.Conv             [16, 32, 3, 2]                
2023-11-15_08:47:59#  2                  -1  1      7360  ultralytics.nn.modules.block.C2f             [32, 32, 1, True]             
2023-11-15_08:47:59#  3                  -1  1     18560  ultralytics.nn.modules.conv.Conv             [32, 64, 3, 2]                
2023-11-15_08:47:59#  4                  -1  2     49664  ultralytics.nn.modules.block.C2f             [64, 64, 2, True]             
2023-11-15_08:47:59#  5                  -1  1     73984  ultralytics.nn.modules.conv.Conv             [64, 128, 3, 2]               
2023-11-15_08:47:59#  6                  -1  2    197632  ultralytics.nn.modules.block.C2f             [128, 128, 2, True]           
2023-11-15_08:47:59#  7                  -1  1    295424  ultralytics.nn.modules.conv.Conv             [128, 256, 3, 2]              
2023-11-15_08:47:59#  8                  -1  1    460288  ultralytics.nn.modules.block.C2f             [256, 256, 1, True]           
2023-11-15_08:47:59#  9                  -1  1    164608  ultralytics.nn.modules.block.SPPF            [256, 256, 5]                 
2023-11-15_08:47:59# 10                  -1  1     33024  ultralytics.nn.modules.conv.Conv             [256, 128, 1, 1]              
2023-11-15_08:47:59# 11                   6  1    147712  ultralytics.nn.modules.conv.Conv             [128, 128, 3, 2]              
2023-11-15_08:47:59# 12                  -1  1     67328  ultralytics.nn.modules.block.BiLevelRoutingAttention[128, 8]                      
2023-11-15_08:47:59# 13            [-1, 10]  1         0  ultralytics.nn.modules.conv.Concat           [1]                           
2023-11-15_08:47:59# 14                  -1  1    127872  ultralytics.nn.modules.block.CSPStage        [256, 128, 1]                 
2023-11-15_08:47:59# 15                  -1  1         0  torch.nn.modules.upsampling.Upsample         [None, 2, 'nearest']          
2023-11-15_08:47:59# 16                   4  1     36992  ultralytics.nn.modules.conv.Conv             [64, 64, 3, 2]                
2023-11-15_08:47:59# 17                  -1  1     17280  ultralytics.nn.modules.block.BiLevelRoutingAttention[64, 8]                       
2023-11-15_08:47:59# 18         [15, -1, 6]  1         0  ultralytics.nn.modules.conv.Concat           [1]                           
2023-11-15_08:47:59# 19                  -1  1    136064  ultralytics.nn.modules.block.CSPStage        [320, 128, 1]                 
2023-11-15_08:47:59# 20                  -1  1         0  torch.nn.modules.upsampling.Upsample         [None, 2, 'nearest']          
2023-11-15_08:47:59# 21                  -1  1     67328  ultralytics.nn.modules.block.BiLevelRoutingAttention[128, 8]                      
2023-11-15_08:47:59# 22             [-1, 4]  1         0  ultralytics.nn.modules.conv.Concat           [1]                           
2023-11-15_08:47:59# 23                  -1  1     36288  ultralytics.nn.modules.block.CSPStage        [192, 64, 1]                  
2023-11-15_08:47:59# 24                  -1  1         0  torch.nn.modules.upsampling.Upsample         [None, 2, 'nearest']          
2023-11-15_08:47:59# 25                  -1  1     17280  ultralytics.nn.modules.block.BiLevelRoutingAttention[64, 8]                       
2023-11-15_08:47:59# 26             [-1, 2]  1         0  ultralytics.nn.modules.conv.Concat           [1]                           
2023-11-15_08:47:59# 27                  -1  1      9184  ultralytics.nn.modules.block.CSPStage        [96, 32, 1]                   
2023-11-15_08:47:59# 28                  -1  1      9280  ultralytics.nn.modules.conv.Conv             [32, 32, 3, 2]                
2023-11-15_08:47:59# 29                  -1  1      4544  ultralytics.nn.modules.block.BiLevelRoutingAttention[32, 8]                       
2023-11-15_08:47:59# 30            [-1, 23]  1         0  ultralytics.nn.modules.conv.Concat           [1]                           
2023-11-15_08:47:59# 31                  -1  1     30144  ultralytics.nn.modules.block.CSPStage        [96, 64, 1]                   
2023-11-15_08:47:59# 32                  -1  1     36992  ultralytics.nn.modules.conv.Conv             [64, 64, 3, 2]                
2023-11-15_08:47:59# 33                  -1  1     17280  ultralytics.nn.modules.block.BiLevelRoutingAttention[64, 8]                       
2023-11-15_08:47:59# 34            [-1, 19]  1         0  ultralytics.nn.modules.conv.Concat           [1]                           
2023-11-15_08:47:59# 35                  -1  1    119680  ultralytics.nn.modules.block.CSPStage        [192, 128, 1]                 
2023-11-15_08:47:59# 36                  19  1     73856  ultralytics.nn.modules.conv.Conv             [128, 64, 3, 2]               
2023-11-15_08:47:59# 37                  35  1     73856  ultralytics.nn.modules.conv.Conv             [128, 64, 3, 2]               
2023-11-15_08:47:59# 38        [14, 36, -1]  1         0  ultralytics.nn.modules.conv.Concat           [1]                           
2023-11-15_08:47:59# 39                  -1  1    444160  ultralytics.nn.modules.block.CSPStage        [256, 256, 1]                 
2023-11-15_08:47:59# 40    [27, 31, 35, 39]  1    617364  ultralytics.nn.modules.head.Detect           [1, [32, 64, 128, 256]]       
2023-11-15_08:47:59#bfg-YOLOv8n summary: 469 layers, 3,396,164 parameters, 3396148 gradients, 22.3 GFLOPs
2023-11-15_08:47:59#
2023-11-15_08:48:08#Ultralytics YOLOv8.0.208  Python-3.8.16 torch-2.1.0+cu121 CUDA:0 (NVIDIA GeForce RTX 3080 Ti, 12043MiB)
2023-11-15_08:48:08#engine/trainer: task=detect, mode=train, model=david/detect/prim_detect/cfg/bfg-yolov8n.yaml, data=
…
up_bias_lr=0.1, box=7.5, cls=0.5, dfl=1.5, pose=12.0, kobj=1.0, label_smoothing=0.0, nbs=64, hsv_h=0.015, hsv_s=0.7, hsv_v=0.4, degrees=0.0, translate=0.1, scale=0.5, shear=0.0, perspective=0.0, flipud=0.0, fliplr=0.5, mosaic=1.0, mixup=0.0, copy_paste=0.0, cfg=None, tracker=botsort.yaml, save_dir=runs/detect/train2
2023-11-15_08:48:08#Overriding model.yaml nc=1 with nc=5
2023-11-15_08:48:08#
2023-11-15_08:48:08#                   from  n    params  module                                       arguments                     
2023-11-15_08:48:08#  0                  -1  1       464  ultralytics.nn.modules.conv.Conv             [3, 16, 3, 2]                 
2023-11-15_08:48:08#  1                  -1  1      4672  ultralytics.nn.modules.conv.Conv             [16, 32, 3, 2]                
2023-11-15_08:48:08#  2                  -1  1      7360  ultralytics.nn.modules.block.C2f             [32, 32, 1, True]             
2023-11-15_08:48:08#  3                  -1  1     18560  ultralytics.nn.modules.conv.Conv             [32, 64, 3, 2]                
2023-11-15_08:48:08#  4                  -1  2     49664  ultralytics.nn.modules.block.C2f             [64, 64, 2, True]             
2023-11-15_08:48:08#  5                  -1  1     73984  ultralytics.nn.modules.conv.Conv             [64, 128, 3, 2]               
2023-11-15_08:48:08#  6                  -1  2    197632  ultralytics.nn.modules.block.C2f             [128, 128, 2, True]           
2023-11-15_08:48:08#  7                  -1  1    295424  ultralytics.nn.modules.conv.Conv             [128, 256, 3, 2]              
2023-11-15_08:48:08#  8                  -1  1    460288  ultralytics.nn.modules.block.C2f             [256, 256, 1, True]           
2023-11-15_08:48:08#  9                  -1  1    164608  ultralytics.nn.modules.block.SPPF            [256, 256, 5]                 
2023-11-15_08:48:08# 10                  -1  1     33024  ultralytics.nn.modules.conv.Conv             [256, 128, 1, 1]              
2023-11-15_08:48:08# 11                   6  1    147712  ultralytics.nn.modules.conv.Conv             [128, 128, 3, 2]              
2023-11-15_08:48:08# 12                  -1  1     67328  ultralytics.nn.modules.block.BiLevelRoutingAttention[128, 8]                      
2023-11-15_08:48:08# 13            [-1, 10]  1         0  ultralytics.nn.modules.conv.Concat           [1]                           
2023-11-15_08:48:08# 14                  -1  1    127872  ultralytics.nn.modules.block.CSPStage        [256, 128, 1]                 
2023-11-15_08:48:08# 15                  -1  1         0  torch.nn.modules.upsampling.Upsample         [None, 2, 'nearest']          
2023-11-15_08:48:08# 16                   4  1     36992  ultralytics.nn.modules.conv.Conv             [64, 64, 3, 2]                
2023-11-15_08:48:08# 17                  -1  1     17280  ultralytics.nn.modules.block.BiLevelRoutingAttention[64, 8]                       
2023-11-15_08:48:08# 18         [15, -1, 6]  1         0  ultralytics.nn.modules.conv.Concat           [1]                           
2023-11-15_08:48:08# 19                  -1  1    136064  ultralytics.nn.modules.block.CSPStage        [320, 128, 1]                 
2023-11-15_08:48:08# 20                  -1  1         0  torch.nn.modules.upsampling.Upsample         [None, 2, 'nearest']          
2023-11-15_08:48:08# 21                  -1  1     67328  ultralytics.nn.modules.block.BiLevelRoutingAttention[128, 8]                      
2023-11-15_08:48:08# 22             [-1, 4]  1         0  ultralytics.nn.modules.conv.Concat           [1]                           
2023-11-15_08:48:08# 23                  -1  1     36288  ultralytics.nn.modules.block.CSPStage        [192, 64, 1]                  
2023-11-15_08:48:08# 24                  -1  1         0  torch.nn.modules.upsampling.Upsample         [None, 2, 'nearest']          
2023-11-15_08:48:08# 25                  -1  1     17280  ultralytics.nn.modules.block.BiLevelRoutingAttention[64, 8]                       
2023-11-15_08:48:08# 26             [-1, 2]  1         0  ultralytics.nn.modules.conv.Concat           [1]                           
2023-11-15_08:48:08# 27                  -1  1      9184  ultralytics.nn.modules.block.CSPStage        [96, 32, 1]                   
2023-11-15_08:48:08# 28                  -1  1      9280  ultralytics.nn.modules.conv.Conv             [32, 32, 3, 2]                
2023-11-15_08:48:08# 29                  -1  1      4544  ultralytics.nn.modules.block.BiLevelRoutingAttention[32, 8]                       
2023-11-15_08:48:08# 30            [-1, 23]  1         0  ultralytics.nn.modules.conv.Concat           [1]                           
2023-11-15_08:48:08# 31                  -1  1     30144  ultralytics.nn.modules.block.CSPStage        [96, 64, 1]                   
2023-11-15_08:48:08# 32                  -1  1     36992  ultralytics.nn.modules.conv.Conv             [64, 64, 3, 2]                
2023-11-15_08:48:08# 33                  -1  1     17280  ultralytics.nn.modules.block.BiLevelRoutingAttention[64, 8]                       
2023-11-15_08:48:08# 34            [-1, 19]  1         0  ultralytics.nn.modules.conv.Concat           [1]                           
2023-11-15_08:48:08# 35                  -1  1    119680  ultralytics.nn.modules.block.CSPStage        [192, 128, 1]                 
2023-11-15_08:48:08# 36                  19  1     73856  ultralytics.nn.modules.conv.Conv             [128, 64, 3, 2]               
2023-11-15_08:48:08# 37                  35  1     73856  ultralytics.nn.modules.conv.Conv             [128, 64, 3, 2]               
2023-11-15_08:48:08# 38        [14, 36, -1]  1         0  ultralytics.nn.modules.conv.Concat           [1]                           
2023-11-15_08:48:08# 39                  -1  1    444160  ultralytics.nn.modules.block.CSPStage        [256, 256, 1]                 
2023-11-15_08:48:08# 40    [27, 31, 35, 39]  1    617892  ultralytics.nn.modules.head.Detect           [5, [32, 64, 128, 256]]       
2023-11-15_08:48:08#bfg-YOLOv8n summary: 469 layers, 3,396,692 parameters, 3396676 gradients, 22.3 GFLOPs
2023-11-15_08:48:08#
2023-11-15_08:48:08#TensorBoard: Start with 'tensorboard --logdir runs/detect/train2', view at http://localhost:6006/




DetectionModel(
  (model): Sequential(
    (0): Conv(
      (conv): Conv2d(3, 16, kernel_size=(3, 3), stride=(2, 2), padding=(1, 1), bias=False)
…
